…
d(residual, wrapped_batch)\n", "deepspeed/inference/v2/model_implementations/mistral/container.py": "# Copyright (c) Microsoft Corporation.\n# SPDX-License-Identifier: Apache-2.0\n\n# DeepSpeed Team\n\n# Create a container object to save model-specific tensors using the policy file above.\n\nfrom deepspeed.inference.v2.model_implementations.common_parameters import *\nfrom deepspeed.inference.v2.model_implementations.layer_container_base import LayerContainer\n'''\n # HF Mistral model (mistralai/Mistral-7B-v0.1) looks like this:\nMistralForCausalLM(\n  (model): MistralModel(\n    (embed_tokens): Embedding(32000, 4096)\n    (layers): ModuleList(\n      (0-31): 32 x MistralDecoderLayer(\n        (self_attn): MistralAttention(\n          (q_proj): Linear(in_features=4096, out_features=4096, bias=False)\n          (k_proj): Linear(in_features=4096, out_features=1024, bias=False)\n          (v_proj): Linear(in_features=4096, out_features=1024, bias=False)\n          (o_proj): Linear(in_features=4096, out_features=4096, bias=False)\n          (rotary_emb): MistralRotaryEmbedding()\n        )\n        (mlp): MistralMLP(\n          (gate_proj): Linear(in_features=4096, out_features=14336, bias=False)\n          (up_proj): Linear(in_features=4096, out_features=14336, bias=False)\n          (down_proj): Linear(in_features=14336, out_features=4096, bias=False)\n          (act_fn): SiLUActivation()\n        )\n        (input_layernorm): MistralRMSNorm()\n        (post_attention_layernorm): MistralRMSNorm()\n      )\n    )\n    (norm): MistralRMSNorm()\n  )\n  (lm_head): Linear(in_features=4096, out_features=32000, bias=False)\n)\n'''\n\n\nclass MistralTransformerContainer(LayerContainer):\n    \"\"\"\n        Transformer layer container for the Mistral model.\n    \"\"\"\n    qkv_w: UnfusedQKVParameter\n    attn_out_w: AttentionOutputParameter\n    mlp_1_w: GatedMLPParameter\n    mlp_2_w: MLP2Parameter\n    attn_norm_gamma: NormParameter\n    mlp_norm_gamma: NormParamet
…
s,\n                                                                      wrapped_batch)\n\n        return self._forward_unembed(residual, wrapped_batch)\n", "deepspeed/inference/v2/model_implementations/qwen/container.py": "# Copyright (c) Microsoft Corporation.\n# SPDX-License-Identifier: Apache-2.0\n\n# DeepSpeed Team\n\n# Create a container object to save model-specific tensors using the policy file above.\n\nfrom ..common_parameters import *\nfrom ..layer_container_base import LayerContainer\n'''\n # HF Qwen model looks like this:\n\nQWenLMHeadModel(\n  (transformer): QWenModel(\n    (wte): Embedding(151936, 4096)\n    (drop): Dropout(p=0.0, inplace=False)\n    (rotary_emb): RotaryEmbedding()\n    (h): ModuleList(\n      (0-31): 32 x QWenBlock(\n        (ln_1): RMSNorm()\n        (attn): QWenAttention(\n          (c_attn): Linear(in_features=4096, out_features=12288, bias=True)\n          (c_proj): Linear(in_features=4096, out_features=4096, bias=False)\n          (attn_dropout): Dropout(p=0.0, inplace=False)\n        )\n        (ln_2): RMSNorm()\n        (mlp): QWenMLP(\n          (w1): Linear(in_features=4096, out_features=11008, bias=False)\n          (w2): Linear(in_features=4096, out_features=11008, bias=False)\n          (c_proj): Linear(in_features=11008, out_features=4096, bias=False)\n        )\n      )\n    )\n    (ln_f): RMSNorm()\n  )\n  (lm_head): Linear(in_features=4096, out_features=151936, bias=False)\n)\n'''\n\n\nclass QwenTransformerContainer(LayerContainer):\n    \"\"\"\n        Transformer layer container for the Qwen model.\n    \"\"\"\n    qkv_w: FusedQKVParameter\n    qkv_b: FusedQKVParameter\n    attn_out_w: AttentionOutputParameter\n    mlp_1_w: GatedMLPParameter\n    mlp_2_w: MLP2Parameter\n    attn_norm_gamma: NormParameter\n    mlp_
…
                                                                 wrapped_batch)\n\n        return self._forward_unembed(residual, wrapped_batch)\n", "deepspeed/inference/v2/model_implementations/qwen_v2/container.py": "# Copyright (c) Microsoft Corporation.\n# SPDX-License-Identifier: Apache-2.0\n\n# DeepSpeed Team\n\n# Create a container object to save model-specific tensors using the policy file above.\n\nfrom ..common_parameters import *\nfrom ..layer_container_base import LayerContainer\n'''\n # HF Qwen2 model looks like this:\n\nQwen2ForCausalLM(\n  (model): Qwen2Model(\n    (embed_tokens): Embedding(151936, 1024)\n    (layers): ModuleList(\n      (0-23): 24 x Qwen2DecoderLayer(\n        (self_attn): Qwen2SdpaAttention(\n          (q_proj): Linear(in_features=1024, out_features=1024, bias=True)\n          (k_proj): Linear(in_features=1024, out_features=1024, bias=True)\n          (v_proj): Linear(in_features=1024, out_features=1024, bias=True)\n          (o_proj): Linear(in_features=1024, out_features=1024, bias=False)\n          (rotary_emb): Qwen2RotaryEmbedding()\n        )\n        (mlp): Qwen2MLP(\n          (gate_proj): Linear(in_features=1024, out_features=2816, bias=False)\n          (up_proj): Linear(in_features=1024, out_features=2816, bias=False)\n          (down_proj): Linear(in_features=2816, out_features=1024, bias=False)\n          (act_fn): SiLU()\n        )\n        (input_layernorm): Qwen2RMSNorm()\n        (post_attention_layernorm): Qwen2RMSNorm()\n      )\n    )\n    (norm): Qwen2RMSNorm()\n  )\n  (lm_head): Linear(in_features=1024, out_features=151936, bias=False)\n)\n'''\n\n\nclass Qwen2TransformerContainer(LayerContainer):\n    \"\"\"\n        Transformer layer container for the Qwen2 model.\n    \"\"\"\n    qkv_w: UnfusedQKVParameter\n    qkv_b: UnfusedQKVParameter\n    attn_out_w: AttentionOutputParameter\n    mlp_1_w: GatedMLPParameter\n    mlp_2_w: MLP2Parameter\n    attn_norm_gamma: NormParameter\n  
…
\n                                                                      wrapped_batch)\n\n        return self._forward_unembed(residual, wrapped_batch)\n", "deepspeed/inference/v2/model_implementations/phi/containers.py": "# Copyright (c) Microsoft Corporation.\n# SPDX-License-Identifier: Apache-2.0\n\n# DeepSpeed Team\n\n# Create a container object to save model-specific tensors using the policy file above.\n\nfrom ..common_parameters import *\nfrom ..layer_container_base import LayerContainer\n'''\n # HF Phi-2 model looks like this:\n\nPhiForCausalLM(\n  (model): PhiModel(\n    (embed_tokens): Embedding(51200, 2560)\n    (embed_dropout): Dropout(p=0.0, inplace=False)\n    (layers): ModuleList(\n      (0-31): 32 x PhiDecoderLayer(\n        (self_attn): PhiAttention(\n          (q_proj): Linear(in_features=2560, out_features=2560, bias=True)\n          (k_proj): Linear(in_features=2560, out_features=2560, bias=True)\n          (v_proj): Linear(in_features=2560, out_features=2560, bias=True)\n          (dense): Linear(in_features=2560, out_features=2560, bias=True)\n          (rotary_emb): PhiRotaryEmbedding()\n        )\n        (mlp): PhiMLP(\n          (activation_fn): NewGELUActivation()\n          (fc1): Linear(in_features=2560, out_features=10240, bias=True)\n          (fc2): Linear(in_features=10240, out_features=2560, bias=True)\n        )\n        (input_layernorm): LayerNorm((2560,), eps=1e-05, elementwise_affine=True)\n        (resid_dropout): Dropout(p=0.1, inplace=False)\n      )\n    )\n    (final_layernorm): LayerNorm((2560,), eps=1e-05, elementwise_affine=True)\n  )\n  (lm_head): Linear(in_features=2560, out_features=51200, bias=True)\n)\n'''\n\n\nclass PhiTransformerContainer(LayerContainer):\n    \"\"\"\n        Transformer layer container for the Phi model.\n    \"\"\"\n    qkv_w: UnfusedQKVParameter\n    qkv_b: UnfusedQKVParameter\n    attn_out_w: AttentionOutputParameter\n    attn_out_b: AttentionOutputParameter\n    mlp_1_w: MLP1Parameter\n    mlp_1_b: MLP1Parameter\n    ml
…
 container for the Falcon model.\n    \"\"\"\n    word_emb: EmbeddingParameter\n    word_unembed: UnembedParameter\n    final_norm_gamma: NormParameter\n    final_norm_beta: NormParameter\n\n    PARAM_MAPPING = {\n        \"transformer.word_embeddings.weight\": \"word_emb.params\",\n        \"transformer.ln_f.weight\": \"final_norm_gamma.params\",\n        \"transformer.ln_f.bias\": \"final_norm_beta.params\",\n        \"lm_head.weight\": \"word_unembed.params\",\n    }\n\n\n'''\n # HF Falcon 40b model looks like this:\n\n FalconForCausalLM(\n  (transformer): FalconModel(\n    (word_embeddings): Embedding(65024, 8192)\n    (h): ModuleList(\n      (0-59): 60 x FalconDecoderLayer(\n        (self_attention): FalconAttention(\n          (maybe_rotary): FalconRotaryEmbedding()\n          (query_key_value): FalconLinear(in_features=8192, out_features=9216, bias=False)\n          (dense): FalconLinear(in_features=8192, out_features=8192, bias=False)\n          (attention_dropout): Dropout(p=0.0, inplace=False)\n        )\n        (mlp): FalconMLP(\n          (dense_h_to_4h): FalconLinear(in_features=8192, out_features=32768, bias=False)\n          (act): GELU(approximate='none')\n          (dense_4h_to_h): FalconLinear(in_features=32768, out_features=8192, bias=False)\n        )\n        (ln_attn): LayerNorm((8192,), eps=1e-05, elementwise_affine=True)\n        (ln_mlp): LayerNorm((8192,), eps=1e-05, elementwise_affine=True)\n      )\n    )\n    (ln_f): LayerNorm((8192,), eps=1e-05, elementwise_affine=True)\n  )\n  (lm_head): Linear(in_features=8192, out_features=65024, bias=False)\n)\n'''\n\n\nclass FalconNewArchTransformerContainer(LayerContainer):\n    \"\"\"\n        Transformer layer container for the Falcon model.\n    \"\"\"\n    qkv_w: GQAMegatronQKVParameter\n    attn_out_w: AttentionOutputParameter\n    mlp_1_w: MLP1Parameter\n    mlp_2_w: MLP2Parameter\n    ln_attn_gamma: NormParameter\n    ln_attn_beta: NormParame
…
                                                                wrapped_batch)\n\n        return self._forward_unembed(residual, wrapped_batch)\n", "deepspeed/inference/v2/model_implementations/llama_v2/container.py": "# Copyright (c) Microsoft Corporation.\n# SPDX-License-Identifier: Apache-2.0\n\n# DeepSpeed Team\n\n# Create a container object to save model-specific tensors using the policy file above.\n\nfrom ..common_parameters import *\nfrom ..layer_container_base import LayerContainer\n'''\n # HF Llama model looks like this:\n\nLlamaForCausalLM(\n  (model): LlamaModel(\n    (embed_tokens): Embedding(32000, 4096, padding_idx=0)\n    (layers): ModuleList(\n      (0-31): 32 x LlamaDecoderLayer(\n        (self_attn): LlamaAttention(\n          (q_proj): Linear(in_features=4096, out_features=4096, bias=False)\n          (k_proj): Linear(in_features=4096, out_features=4096, bias=False)\n          (v_proj): Linear(in_features=4096, out_features=4096, bias=False)\n          (o_proj): Linear(in_features=4096, out_features=4096, bias=False)\n          (rotary_emb): LlamaRotaryEmbedding()\n        )\n        (mlp): LlamaMLP(\n          (gate_proj): Linear(in_features=4096, out_features=11008, bias=False)\n          (up_proj): Linear(in_features=4096, out_features=11008, bias=False)\n          (down_proj): Linear(in_features=11008, out_features=4096, bias=False)\n          (act_fn): SiLUActivation()\n        )\n        (input_layernorm): LlamaRMSNorm()\n        (post_attention_layernorm): LlamaRMSNorm()\n      )\n    )\n    (norm): LlamaRMSNorm()\n  )\n  (lm_head): Linear(in_features=4096, out_features=32000, bias=False)\n)\n'''\n\n\nclass Llama2TransformerContainer(LayerContainer):\n    \"\"\"\n        Transformer layer container for the Llama-2 model.\n    \"\"\"\n    qkv_w: UnfusedQKVParameter\n    attn_out_w: AttentionOutputParameter\n    mlp_1_w: GatedMLPParameter\n    mlp_2_w: MLP2Parameter\n    attn_norm_gamma: NormParameter\n    mlp_norm_gamma: NormParamete
…
                                             wrapped_batch)\n\n        return self._forward_unembed(residual, wrapped_batch)\n", "deepspeed/inference/v2/model_implementations/opt/container.py": "# Copyright (c) Microsoft Corporation.\n# SPDX-License-Identifier: Apache-2.0\n\n# DeepSpeed Team\n\n# Create a container object to save model-specific tensors using the policy file above.\n\nfrom ..common_parameters import *\nfrom ..layer_container_base import LayerContainer\n'''\n # HF OPT model looks like this:\n\nOPTForCausalLM(\n  (model): OPTModel(\n    (decoder): OPTDecoder(\n      (embed_tokens): Embedding(50272, 768, padding_idx=1)\n      (embed_positions): OPTLearnedPositionalEmbedding(2050, 768)\n      (final_layer_norm): LayerNorm((768,), eps=1e-05, elementwise_affine=True)\n      (layers): ModuleList(\n        (0-11): 12 x OPTDecoderLayer(\n          (self_attn): OPTAttention(\n            (k_proj): Linear(in_features=768, out_features=768, bias=True)\n            (v_proj): Linear(in_features=768, out_features=768, bias=True)\n            (q_proj): Linear(in_features=768, out_features=768, bias=True)\n            (out_proj): Linear(in_features=768, out_features=768, bias=True)\n          )\n          (activation_fn): ReLU()\n          (self_attn_layer_norm): LayerNorm((768,), eps=1e-05, elementwise_affine=True)\n          (fc1): Linear(in_features=768, out_features=3072, bias=True)\n          (fc2): Linear(in_features=3072, out_features=768, bias=True)\n          (final_layer_norm): LayerNorm((768,), eps=1e-05, elementwise_affine=True)\n        )\n      )\n    )\n  )\n  (lm_head): Linear(in_features=768, out_features=50272, bias=False)\n)\n\n'''\n\n\nclass OPTTransformerContainer(LayerContainer):\n    \"\"\"\n        Transformer layer container for the OPT model.\n    \"\"\"\n    qkv_w: UnfusedQKVParameter\n    qkv_b: UnfusedQKVParameter\n    attn_out_w: AttentionOutputParameter\n    attn_out_b: AttentionOutputParameter\n    mlp_1_w: MLP1Parameter\n    mlp_1_b: MLP1Parameter\n    
…
